…
 additional_hidden_wide=additional)\n        if additional &gt; 2 and hdim &gt; 50:\n            clf.set_fit_params(epochs=1000)\n        else:\n            clf.set_fit_params(epochs=500)\n        print(clf)\n        clf.fit(X_train,y_train)\n        with sns.plotting_context('poster'):\n            clf.plot_loss()\n            clf.plot_boundary(X_train, X_test, y_train, y_test)\n        print(\"Train acc\", accuracy_score(y_train, clf.predict(X_train)))\n        print(\"Test acc\", accuracy_score(y_test, clf.predict(X_test)))\n\n====================\nAdditional 0 hidden 2\nMLP(\n  (fc_initial): Linear(in_features=2, out_features=2)\n  (fc_mid): ModuleList(\n  )\n  (fc_final): Linear(in_features=2, out_features=2)\n)\n{'lr': 0.1, 'epochs': 500, 'batch_size': 64}\nNum Params: 12\n\n\n\n\n\n\n\n\n\n\n\n\n\n\n\n\n\n\n\n\n\n\nTrain acc 0.866666666667\nTest acc 0.8375\n====================\nAdditional 0 hidden 10\nMLP(\n  (fc_initial): Linear(in_features=2, out_features=10)\n  (fc_mid): ModuleList(\n  )\n  (fc_final): Linear(in_features=10, out_features=2)\n)\n{'lr': 0.1, 'epochs': 500, 'batch_size': 64}\nNum Params: 52\n\n\n\n\n\n\n\n\n\n\n\n\n\n\n\n\n\n\n\n\n\n\nTrain acc 0.870833333333\nTest acc 0.88125\n====================\nAdditional 0 hidden 100\nMLP(\n  (fc_initial): Linear(in_features=2, out_features=100)\n  (fc_mid): ModuleList(\n  )\n  (fc_final): Linear(in_features=100, out_features=2)\n)\n{'lr': 0.1, 'epochs': 500, 'batch_size': 64}\nNum Params: 502\n\n\n\n\n\n\n\n\n\n\n\n\n\n\n\n\n\n\n\n\n\n\nTrain acc 0.870833333333\nTest acc 0.8875\n====================\nAdditional 0 hidden 1000\nMLP(\n  (fc_initial): Linear(in_features=2, out_features=1000)\n  (fc_mid): ModuleList(\n  )\n  (fc_final): Linear(in_features=1000, out_features=2)\n)\n{'lr': 0.1, 'epochs': 500, 'batch_size': 64}\nNum Params: 5002\n\n\n\n\n\n\n\n\n\n\n\n\n\n\n\n\n\n\n\n\n\n\nTrain acc 0.833333333333\nTest acc 0.8\n====================\nAdditional 2 hidden 2\nMLP(\n  (fc_initial): Linear(in_features=2, out_features=2)\n  (fc_mid): ModuleList(\n    (0): Linear(in_features=2, out_features=2)\n    (1): Linear(in_features=2, out_features=2)\n  )\n  (fc_final): Linear(in_features=2, out_features=2)\n)\n{'lr': 0.1, 'epochs': 500, 'batch_size': 64}\nNum Params: 24\n\n\n\n\n\n\n\n\n\n\n\n\n\n\n\n\n\n\n\n\n\n\nTrain acc 0.875\nTest acc 0.825\n====================\nAdditional 2 hidden 10\nMLP(\n  (fc_initial): Linear(in_features=2, out_features=10)\n  (fc_mid): ModuleList(\n    (0): Linear(in_features=10, out_features=10)\n    (1): Linear(in_features=10, out_features=10)\n  )\n  (fc_final): Linear(in_features=10, out_features=2)\n)\n{'lr': 0.1, 'epochs': 500, 'batch_size': 64}\nNum Params: 272\n\n\n\n\n\n\n\n\n\n\n\n\n\n\n\n\n\n\n\n\n\n\nTrain acc 0.8625\nTest acc 0.90625\n====================\nAdditional 2 hidden 100\nMLP(\n  (fc_initial): Linear(in_features=2, out_features=100)\n  (fc_mid): ModuleList(\n    (0): Linear(in_features=100, out_features=100)\n    (1): Linear(in_features=100, out_features=100)\n  )\n  (fc_final): Linear(in_features=100, out_features=2)\n)\n{'lr': 0.1, 'epochs': 500, 'batch_size': 64}\nNum Params: 20702\n\n\n\n\n\n\n\n\n\n\n\n\n\n\n\n\n\n\n\n\n\n\nTrain acc 0.891666666667\nTest acc 0.85\n====================\nAdditional 2 hidden 1000\nMLP(\n  (fc_initial): Linear(in_features=2, out_features=1000)\n  (fc_mid): ModuleList(\n    (0): Linear(in_features=1000, out_features=1000)\n    (1): Linear(in_features=1000, out_features=1000)\n  )\n  (fc_final): Linear(in_features=1000, out_features=2)\n)\n{'lr': 0.1, 'epochs': 500, 'batch_size': 64}\nNum Params: 2007002\n\n\n\n\n\n\n\n\n\n\n\n\n\n\n\n\n\n\n\n\n\n\nTrain acc 0.8375\nTest acc 0.8125\n====================\nAdditional 4 hidden 2\nMLP(\n  (fc_initial): Linear(in_features=2, out_features=2)\n  (fc_mid): ModuleList(\n    (0): Linear(in_features=2, out_features=2)\n    (1): Linear(in_features=2, out_features=2)\n    (2): Linear(in_features=2, out_features=2)\n    (3): Linear(in_features=2, out_features=2)\n  )\n  (fc_final): Linear(in_features=2, out_features=2)\n)\n{'lr': 0.1, 'epochs': 500, 'batch_size': 64}\nNum Params: 36\n\n\n\n\n\n\n\n\n\n\n\n\n\n\n\n\n\n\n\n\n\n\nTrain acc 0.508333333333\nTest acc 0.4875\n====================\nAdditional 4 hidden 10\nMLP(\n  (fc_initial): Linear(in_features=2, out_features=10)\n  (fc_mid): ModuleList(\n    (0): Linear(in_features=10, out_features=10)\n    (1): Linear(in_features=10, out_features=10)\n    (2): Linear(in_features=10, out_features=10)\n    (3): Linear(in_features=10, out_features=10)\n  )\n  (fc_final): Linear(in_features=10, out_features=2)\n)\n{'lr': 0.1, 'epochs': 500, 'batch_size': 64}\nNum Params: 492\n\n\n\n\n\n\n\n\n\n\n\n\n\n\n\n\n\n\n\n\n\n\nTrain acc 0.8625\nTest acc 0.85\n====================\nAdditional 4 hidden 100\nMLP(\n  (fc_initial): Linear(in_features=2, out_features=100)\n  (fc_mid): ModuleList(\n    (0): Linear(in_features=100, out_features=100)\n    (1): Linear(in_features=100, out_features=100)\n    (2): Linear(in_features=100, out_features=100)\n    (3): Linear(in_features=100, out_features=100)\n  )\n  (fc_final): Linear(in_features=100, out_features=2)\n)\n{'lr': 0.1, 'epochs': 1000, 'batch_size': 64}\nNum Params: 40902\n\n\n\n\n\n\n\n\n\n\n\n\n\n\n\n\n\n\n\n\n\n\nTrain acc 0.916666666667\nTest acc 0.84375\n====================\nAdditional 4 hidden 1000\nMLP(\n  (fc_initial): Linear(in_features=2, out_features=1000)\n  (fc_mid): ModuleList(\n    (0): Linear(in_features=1000, out_features=1000)\n    (1): Linear(in_features=1000, out_features=1000)\n    (2): Linear(in_features=1000, out_features=1000)\n    (3): Linear(in_features=1000, out_features=1000)\n  )\n  (fc_final): Linear(in_features=1000, out_features=2)\n)\n{'lr': 0.1, 'epochs': 1000, 'batch_size': 64}\nNum Params: 4009002\n\n\n\n\n\n\n\n\n\n\n\n\n\n\n\n\n\n\n\n\n\n\nTrain acc 0.866666666667\nTest acc 0.80625"
  },
  {
    "objectID": "posts/mlp_classification/index.html#create-some-noisy-moon-shaped-data",
    "href": "posts/mlp_classification/index.html#create-some-noisy-moon-shaped-data",
    "title": "Multi-Layer Perceptron for Classification",
…
in iter(loader):\n            localx = Variable(localx.float())\n            localy = Variable(localy.float())\n            output, _, _ = model.forward(localx)\n            loss = criterion(output, localy)\n            model.zero_grad()\n            loss.backward()\n            optimizer.step()\n            localaccum.append(loss.data[0])\n        accum.append((np.mean(localaccum), np.std(localaccum)))\n    return accum\n\n\ninput dim 1, 2 hidden layers width 2, linear output\n\nmodel = MLRegP(1, 2, nonlinearity=fn.sigmoid, additional_hidden_wide=1)\n\n\nprint(model)\n\nMLRegP(\n  (fc_initial): Linear(in_features=1, out_features=2)\n  (fc_mid): ModuleList(\n    (0): Linear(in_features=2, out_features=2)\n  )\n  (fc_final): Linear(in_features=2, out_features=1)\n)\n\n\n\naccum = run_model(model, 2000)\n\n\nplt.plot([a[0] for a in accum]);\n\n\n\n\n\n\n\n\n\nplt.plot([a[0]+a[1] for a in accum]);\nplt.plot([a[0]-a[1] for a in accum]);\nplt.xlim(0, 1000)\n\n\n\n\n\n\n\n\n\nfinaloutput, init_output, mid_output = model.forward(xdata.view(-1,1))\nplt.plot(xgrid, ygrid, '.')\nplt.plot(xgrid, finaloutput.data.numpy(), lw=3, color=\"r\")\n#plt.xticks([])\n#plt.yticks([])\n\n\n\n\n\n\n\n\n\nio = mid_output.data.numpy()\nio.shape\n\n(629, 2)\n\n\n\nplt.plot(xgrid, ygrid, '.', alpha=0.2)\nfor j in range(io.shape[1]):\n    plt.plot(xgrid, io[:, j], lw=2)\n\n\n\n\n\n\n\n\n\n\ninput dim 1, 2 hidden layers width 4, linear output\n\nmodel2 = MLRegP(1, 4, nonlinearity=fn.sigmoid, additional_hidden_wide=1)\naccum = run_model(model2, 4000)\n\n\nprint(model2)\n\nMLRegP(\n  (fc_initial): Linear(in_features=1, out_features=4)\n  (fc_mid): ModuleList(\n    (0): Linear(in_features=4, out_features=4)\n  )\n  (fc_final): Linear(in_features=4, out_features=1)\n)\n\n\n\nplt.plot([a[0] for a in accum]);\n\n\n\n\n\n\n\n\n\nfinaloutput, init_output, mid_output = model2.forward(xdata.view(-1,1))\nplt.plot(xgrid, ygrid, '.')\nplt.plot(xgrid, finaloutput.data.numpy(), lw=3, color=\"r\")\n\n\n\n\n\n\n\n\n\nio = mid_output.data.numpy()\nio.shape\n\n(629, 4)\n\n\n\nplt.plot(xgrid, ygrid, '.', alpha=0.2)\nfor j in range(io.shape[1]):\n    plt.plot(xgrid, io[:, j], lw=2)\n\n\n\n\n\n\n\n\n\n\ninput dim 1, 2 hidden layers width 8, linear output\n\nmodel3 = MLRegP(1, 8, nonlinearity=fn.sigmoid, additional_hidden_wide=1)\naccum = run_model(model3, 4000)\nplt.plot([a[0] for a in accum]);\n\n\n\n\n\n\n\n\n\nprint(model3)\n\nMLRegP(\n  (fc_initial): Linear(in_features=1, out_features=8)\n  (fc_mid): ModuleList(\n    (0): Linear(in_features=8, out_features=8)\n  )\n  (fc_final): Linear(in_features=8, out_features=1)\n)\n\n\n\nfinaloutput, init_output, mid_output = model3.forward(xdata.view(-1,1))\nplt.plot(xgrid, ygrid, '.')\nplt.plot(xgrid, finaloutput.data.numpy(), lw=3, color=\"r\")\n\n\n\n\n\n\n\n\n\nio = mid_output.data.numpy()\nplt.plot(xgrid, ygrid, '.', alpha=0.2)\nfor j in range(io.shape[1]):\n    plt.plot(xgrid, io[:, j], lw=2)\n\n\n\n\n\n\n\n\n\n\ninput dim 1, 3 hidden layers width 4, linear output\n\nmodel4 = MLRegP(1, 4, nonlinearity=fn.sigmoid, additional_hidden_wide=2)\naccum = run_model(model4, 4000)\nplt.plot([a[0] for a in accum]);\n\n\n\n\n\n\n\n\n\nprint(model4)\n\nMLRegP(\n  (fc_initial): Linear(in_features=1, out_features=4)\n  (fc_mid): ModuleList(\n    (0): Linear(in_features=4, out_features=4)\n    (1): Linear(in_features=4, out_features=4)\n  )\n  (fc_final): Linear(in_features=4, out_features=1)\n)\n\n\n\nfinaloutput, init_output, mid_output = model4.forward(xdata.view(-1,1))\nplt.plot(xgrid, ygrid, '.')\nplt.plot(xgrid, finaloutput.data.numpy(), lw=3, color=\"r\")\n\n\n\n\n\n\n\n\n\n\ninput dim 1, 3 hidden layers width 2, linear output\n\nmodel5 = MLRegP(1, 2, nonlinearity=fn.sigmoid, additional_hidden_wide=2)\naccum = run_model(model5, 4000)\nplt.plot([a[0] for a in accum]);\n\n\n\n\n\n\n\n\n\nprint(model5)\n\nMLRegP(\n  (fc_initial): Linear(in_features=1, out_features=2)\n  (fc_mid): ModuleList(\n    (0): Linear(in_features=2, out_features=2)\n    (1): Linear(in_features=2, out_features=2)\n  )\n  (fc_final): Linear(in_features=2, out_features=1)\n)\n\n\n\nfinaloutput, init_output, mid_output = model5.forward(xdata.view(-1,1))\nplt.plot(xgrid, ygrid, '.')\nplt.plot(xgrid, finaloutput.data.numpy(), lw=3, color=\"r\")\n\n\n\n\n\n\n\n\n\nio = mid_output.data.numpy()\nplt.plot(xgrid, ygrid, '.', alpha=0.2)\nfor j in range(io.shape[1]):\n    plt.plot(xgrid, io[:, j], lw=2)\n\n\n\n\n\n\n\n\n\n\ninput dim 1, 1 hidden layers width 2, linear output\n\nmodel6 = MLRegP(1, 2, nonlinearity=fn.sigmoid, additional_hidden_wide=0)\naccum = run_model(model6, 4000)\nplt.plot([a[0] for a in accum]);\n\n\n\n\n\n\n\n\n\nprint(model6)\n\nMLRegP(\n  (fc_initial): Linear(in_features=1, out_features=2)\n  (fc_mid): ModuleList(\n  )\n  (fc_final): Linear(in_features=2, out_features=1)\n)\n\n\n\nfinaloutput, init_output, mid_output = model6.forward(xdata.view(-1,1))\nplt.plot(xgrid, ygrid, '.')\nplt.plot(xgrid, finaloutput.data.numpy(), lw=3, color=\"r\")\n\n\n\n\n\n\n\n\n\nio = mid_output.data.numpy()\nplt.plot(xgrid, ygrid, '.', alpha=0.2)\nfor j in range(io.shape[1]):\n    plt.plot(xgrid, io[:, j], lw=2)\n\n\n\n\n\n\n\n\n\n\ninput dim 1, 1 hidden layers width 1, linear output\n\nmodel7 = MLRegP(1, 1, nonlinearity=fn.sigmoid, additional_hidden_wide=0)\naccum = run_model(model7, 4000)\nplt.plot([a[0] for a in accum]);\n\n\n\n\n\n\n\n\n\nprint(model7)\n\nMLRegP(\n  (fc_initial): Linear(in_features=1, out_features=1)\n  (fc_mid): ModuleList(\n  )\n  (fc_final): Linear(in_features=1, out_features=1)\n)\n\n\n\nfinaloutput, init_output, mid_output = model7.forward(xdata.view(-1,1))\nplt.plot(xgrid, ygrid, '.')\nplt.plot(xgrid, finaloutput.data.numpy(), lw=3, color=\"r\")\n\n\n\n\n\n\n\n\n\nio = mid_output.data.numpy()\nplt.plot(xgrid, ygrid, '.', alpha=0.2)\nfor j in range(io.shape[1]):\n    plt.plot(xgrid, io[:, j], lw=2)\n\n\n\n\n\n\n\n\n\n\ninput dim 1, 1 hidden layers width 16, linear output\n\nmodel8 = MLRegP(1, 16, nonlinearity=fn.sigmoid, additional_hidden_wide=0)\naccum = run_model(model8, 4000)\nplt.plot([a[0] for a in accum]);\n\n\n\n\n\n\n\n\n\nprint(model8)\n\nMLRegP(\n  (fc_initial): Linear(in_features=1, out_features=16)\n  (fc_mid): ModuleList(\n  )\n  (fc_final): Linear(in_features=16, out_features=1)\n)\n\n\n\nfinaloutput, init_output, mid_output = model8.forward(xdata.view(-1,1))\nplt.plot(xgrid, ygrid, '.')\nplt.plot(xgrid, finaloutput.data.numpy(), lw=3, color=\"r\")\nplt.title(\"input dim 1, 1 hidden layers width 16, linear output\");\n\n\n\n\n\n\n\n\n\nio = mid_output.data.numpy()\nplt.plot(xgrid, ygrid, '.', alpha=0.2)\nfor j in range(io.shape[1]):\n    plt.plot(xgrid, io[:, j], lw=2)"
…
